2022-05-17 03:47:14,557  - INFO - Computation device: cpu

2022-05-17 03:47:53,226  - INFO - Computation device: cpu

2022-05-17 03:48:05,697  - INFO - Computation device: cpu

2022-05-17 03:57:37,456  - INFO - Computation device: cpu

2022-05-17 03:58:00,200  - INFO - Computation device: cpu

2022-05-17 04:00:00,528  - INFO - Computation device: cpu

2022-05-17 04:00:01,318  - INFO - Running Model
: MulticlassSimpleClassification(
  (layer1): Linear(in_features=6, out_features=512, bias=True)
  (layer2): Linear(in_features=512, out_features=128, bias=True)
  (layer3): Linear(in_features=128, out_features=64, bias=True)
  (out): Linear(in_features=64, out_features=3, bias=True)
)
2022-05-17 04:00:01,318  - INFO - 77,699 total parameters.
2022-05-17 04:00:01,318  - INFO - 77,699 training parameters.
2022-05-17 04:00:57,322  - INFO - Computation device: cpu

2022-05-17 04:00:58,075  - INFO - Running Model
: MulticlassSimpleClassification(
  (layer1): Linear(in_features=6, out_features=512, bias=True)
  (layer2): Linear(in_features=512, out_features=128, bias=True)
  (layer3): Linear(in_features=128, out_features=64, bias=True)
  (out): Linear(in_features=64, out_features=3, bias=True)
)
2022-05-17 04:00:58,075  - INFO - 77,699 total parameters.
2022-05-17 04:00:58,075  - INFO - 77,699 training parameters.
2022-05-17 04:01:47,183  - INFO - Computation device: cpu

2022-05-17 04:01:47,965  - INFO - Running Model
: MulticlassSimpleClassification(
  (layer1): Linear(in_features=6, out_features=512, bias=True)
  (layer2): Linear(in_features=512, out_features=128, bias=True)
  (layer3): Linear(in_features=128, out_features=64, bias=True)
  (out): Linear(in_features=64, out_features=3, bias=True)
)
2022-05-17 04:01:47,965  - INFO - 77,699 total parameters.
2022-05-17 04:01:47,965  - INFO - 77,699 training parameters.
2022-05-17 04:06:19,898  - INFO - Computation device: cpu

2022-05-17 04:06:43,454  - INFO - Computation device: cpu

2022-05-17 04:07:12,994  - INFO - Computation device: cpu

2022-05-17 04:07:58,321  - INFO - Computation device: cpu

2022-05-17 04:07:58,997  - INFO - Running Model
: MulticlassSimpleClassification(
  (layer1): Linear(in_features=6, out_features=512, bias=True)
  (layer2): Linear(in_features=512, out_features=128, bias=True)
  (layer3): Linear(in_features=128, out_features=64, bias=True)
  (out): Linear(in_features=64, out_features=3, bias=True)
)
2022-05-17 04:07:58,997  - INFO - 77,699 total parameters.
2022-05-17 04:07:58,998  - INFO - 77,699 training parameters.
2022-05-17 04:09:10,033  - INFO - Computation device: cpu

2022-05-17 04:09:10,703  - INFO - Running Model
: MulticlassSimpleClassification(
  (layer1): Linear(in_features=6, out_features=512, bias=True)
  (layer2): Linear(in_features=512, out_features=128, bias=True)
  (layer3): Linear(in_features=128, out_features=64, bias=True)
  (out): Linear(in_features=64, out_features=3, bias=True)
)
2022-05-17 04:09:10,704  - INFO - 77,699 total parameters.
2022-05-17 04:09:10,704  - INFO - 77,699 training parameters.
2022-05-17 04:10:45,620  - INFO - Computation device: cpu

2022-05-17 04:10:46,350  - INFO - Running Model
: MulticlassSimpleClassification(
  (layer1): Linear(in_features=6, out_features=512, bias=True)
  (layer2): Linear(in_features=512, out_features=128, bias=True)
  (layer3): Linear(in_features=128, out_features=64, bias=True)
  (out): Linear(in_features=64, out_features=3, bias=True)
)
2022-05-17 04:10:46,350  - INFO - 77,699 total parameters.
2022-05-17 04:10:46,350  - INFO - 77,699 training parameters.
2022-05-17 04:11:18,975  - INFO - Computation device: cpu

2022-05-17 04:11:19,714  - INFO - Running Model
: MulticlassSimpleClassification(
  (layer1): Linear(in_features=6, out_features=512, bias=True)
  (layer2): Linear(in_features=512, out_features=128, bias=True)
  (layer3): Linear(in_features=128, out_features=64, bias=True)
  (out): Linear(in_features=64, out_features=3, bias=True)
)
2022-05-17 04:11:19,715  - INFO - 77,699 total parameters.
2022-05-17 04:11:19,715  - INFO - 77,699 training parameters.
2022-05-17 04:11:59,563  - INFO - Computation device: cpu

2022-05-17 04:13:28,554  - INFO - Computation device: cpu

2022-05-17 04:13:29,110  - INFO - Running Model
: MulticlassSimpleClassification(
  (layer1): Linear(in_features=6, out_features=512, bias=True)
  (layer2): Linear(in_features=512, out_features=128, bias=True)
  (layer3): Linear(in_features=128, out_features=64, bias=True)
  (out): Linear(in_features=64, out_features=3, bias=True)
)
2022-05-17 04:13:29,110  - INFO - 77,699 total parameters.
2022-05-17 04:13:29,110  - INFO - 77,699 training parameters.
2022-05-17 04:21:13,851  - INFO - Computation device: cpu

2022-05-17 04:21:14,521  - INFO - Running Model
: MulticlassSimpleClassification(
  (layer1): Linear(in_features=6, out_features=512, bias=True)
  (layer2): Linear(in_features=512, out_features=128, bias=True)
  (layer3): Linear(in_features=128, out_features=64, bias=True)
  (out): Linear(in_features=64, out_features=5, bias=True)
)
2022-05-17 04:21:14,521  - INFO - 77,829 total parameters.
2022-05-17 04:21:14,521  - INFO - 77,829 training parameters.
2022-05-17 04:21:18,120  - INFO - Epoch [200/4000],  Loss: 1.2822  Accuracy: 0.6333 
2022-05-17 04:21:21,520  - INFO - Epoch [400/4000],  Loss: 1.2688  Accuracy: 0.6286 
2022-05-17 04:21:25,770  - INFO - Epoch [600/4000],  Loss: 1.1895  Accuracy: 0.7119 
2022-05-17 04:21:29,523  - INFO - Epoch [800/4000],  Loss: 1.1472  Accuracy: 0.7643 
2022-05-17 04:21:33,157  - INFO - Epoch [1000/4000],  Loss: 1.1559  Accuracy: 0.7452 
2022-05-17 04:21:36,357  - INFO - Finish training model 

2022-05-17 04:21:41,670  - INFO - Computation device: cpu
2022-05-17 04:22:12,585  - INFO - Computation device: cpu

2022-05-17 04:22:13,480  - INFO - Running Model
: MulticlassSimpleClassification(
  (layer1): Linear(in_features=6, out_features=512, bias=True)
  (layer2): Linear(in_features=512, out_features=128, bias=True)
  (layer3): Linear(in_features=128, out_features=64, bias=True)
  (out): Linear(in_features=64, out_features=5, bias=True)
)
2022-05-17 04:22:13,480  - INFO - 77,829 total parameters.
2022-05-17 04:22:13,480  - INFO - 77,829 training parameters.
2022-05-17 04:22:20,546  - INFO - Epoch [200/4000],  Loss: 1.2477  Accuracy: 0.6810 
2022-05-17 04:22:26,763  - INFO - Epoch [400/4000],  Loss: 1.1863  Accuracy: 0.7167 
2022-05-17 04:22:31,637  - INFO - Epoch [600/4000],  Loss: 1.1474  Accuracy: 0.7500 
2022-05-17 04:22:37,147  - INFO - Epoch [800/4000],  Loss: 1.1402  Accuracy: 0.7595 
2022-05-17 04:22:41,295  - INFO - Epoch [1000/4000],  Loss: 1.1433  Accuracy: 0.7571 
2022-05-17 04:22:43,947  - INFO - Finish training model 

2022-05-17 04:22:48,221  - INFO - Computation device: cpu
2022-05-17 04:23:31,581  - INFO - Computation device: cpu

2022-05-17 04:23:32,262  - INFO - Running Model
: MulticlassSimpleClassification(
  (layer1): Linear(in_features=6, out_features=512, bias=True)
  (layer2): Linear(in_features=512, out_features=128, bias=True)
  (layer3): Linear(in_features=128, out_features=64, bias=True)
  (out): Linear(in_features=64, out_features=5, bias=True)
)
2022-05-17 04:23:32,262  - INFO - 77,829 total parameters.
2022-05-17 04:23:32,262  - INFO - 77,829 training parameters.
2022-05-17 04:23:36,361  - INFO - Epoch [200/4000],  Loss: 1.2243  Accuracy: 0.6929 
2022-05-17 04:23:39,833  - INFO - Epoch [400/4000],  Loss: 1.1527  Accuracy: 0.7548 
2022-05-17 04:23:43,286  - INFO - Epoch [600/4000],  Loss: 1.1419  Accuracy: 0.7643 
…
